LUT/alphax_alphay_theta_phi.npy (npy, 147584 bytes, 1 tensors)

array f4 [8, 8, 8, 8, 3, 3]
00000000: 1d78 4f39 0000 0000 0000 0000 0000 0000
00000010: 1d78 4f39 0000 0000 0000 0000 0000 0000
00000020: 0000 803f 1d78 4f39 0000 0000 0000 0000
00000030: 0000 0000 1d78 4f39 0000 0000 0000 0000
00000040: 0000 0000 0000 803f 1d78 4f39 0000 0000
00000050: 0000 0000 0000 0000 1d78 4f39 0000 0000
00000060: 0000 0000 0000 0000 0000 803f 1d78 4f39
00000070: 0000 0000 0000 0000 0000 0000 1d78 4f39
00000080: 0000 0000 0000 0000 0000 0000 0000 803f
00000090: 1d78 4f39 0000 0000 0000 0000 0000 0000
000000a0: 1d78 4f39 0000 0000 0000 0000 0000 0000
000000b0: 0000 803f 1d78 4f39 0000 0000 0000 0000
000000c0: 0000 0000 1d78 4f39 0000 0000 0000 0000
000000d0: 0000 0000 0000 803f 1d78 4f39 0000 0000
000000e0: 0000 0000 0000 0000 1d78 4f39 0000 0000
000000f0: 0000 0000 0000 0000 0000 803f 1d78 4f39
00000100: 0000 0000 0000 0000 0000 0000 1d78 4f39
00000110: 0000 0000 0000 0000 0000 0000 0000 803f
00000120: 733d 8139 0000 0000 53df 63be 0000 0000
00000130: fdca 4a39 0000 0000 2052 44b9 0000 0000
00000140: b794 793f 5f8f 8c38 5b8a 1db6 cc17 5ebe
00000150: c7bb f4b7 d16a 4a39 d1af 4abd db05 1f3a
00000160: 4b28 e437 c695 793f a72d 3d39 3293 7eb8
00000170: 5f39 4dbe 3d92 36b6 3205 2f39 54ac c5bd
00000180: 35b8 e138 115e 9839 0196 793f 6257 f637
00000190: f1bb 4db7 8636 32be 305b 05b9 1b36 4339
000001a0: c80e 0ebe 0386 7a3a 3c4b a238 4294 793f
000001b0: 55e0 2339 03d9 01b8 490b 0ebe e8ef 48b8
000001c0: d33c 2039 dc06 32be 4e66 9639 8742 8939
000001d0: 8196 793f f455 3f39 5264 beb7 54ac c5bd
000001e0: 843e 9fb7 c721 2139 5f39 4dbe 9cd9 0d39
000001f0: bd6a 7039 0196 793f ce32 5539 4c3a 5e36
00000200: d1af 4abd 58f0 2938 d2a4 4639 cc17 5ebe
00000210: d268 43b9 459b 7b38 c695 793f 586b 4a39
00000220: 0000 0000 0000 0000 0000 0000 615d 5e39
00000230: 63c1 63be 0000 0000 c8a0 25b8 6d96 793f
00000240: 2825 3439 0000 0000 7c0c debe 0000 0000
00000250: 4d04 3b39 0000 0000 d5be cd38 0000 0000
00000260: 0aac 663f bd33 3239 97d6 16b8 8d9e d8be
00000270: 0c2a 9635 64c3 3439 6abf c5bd afc6 da38
00000280: d28c b338 66a3 663f 78e8 b039 c0d0 b438
00000290: 2815 c8be 1d97 a538 d18d 6839 14ac 40be
000002a0: 81d3 95b9 6541 32b9 ecaa 663f 763e 3239
000002b0: e27f 7eb8 cca9 adbe 7d3b 24b7 5a55 0739
000002c0: df7f 8abe 7ab7 bf38 495e 6b39 21a7 663f
000002d0: f8e8 2139 b0c4 82b7 e073 8abe 9ae8 fcb7
000002e0: 03fa 2739 85a3 adbe f887 0b39 90d7 f638
000002f0: 1daa 663f 3247 3b39 8eb8 a536 59cd 40be
00000300: 4915 2236 88bc 4d39 e413 c8be 9614 3538
00000310: a0b1 1c38 76a9 663f 0657 2639 c088 9937
00000320: 6abf c5bd 3515 a1b8 df32 9339 8d9e d8be
00000330: db06 4d39 4472 11b9 66a3 663f c1f5 3b39
00000340: 0000 0000 0000 0000 0000 0000 5e91 093a
00000350: 7c0c debe 0000 0000 6f30 25ba 0aac 663f
00000360: c667 acb8 0000 0000 129c 1fbf 0000 0000
00000370: 19fa 2239 0000 0000 53d6 dd39 0000 0000
00000380: df26 483f ff1d 6b39 3413 60b9 e1aa 1bbf
00000390: c9a8 bc37 fab5 e338 1911 0ebe 6c73 0c38
000003a0: a2e5 9739 ff1a 483f c793 2c39 2f3b 55b8
000003b0: ffc4 0fbf 1900 c436 1260 0939 fe84 8abe
000003c0: 55b1 cd38 9622 fc38 682c 483f dc67 15b9
000003d0: f77f a6b9 438c f9be fadf 78b9 eb6f d1b8
000003e0: b012 c7be 1059 163a 80b6 193a 5926 483f
000003f0: 2516 8039 7ba9 c638 eb10 c7be 5e6f f238
0.00019785804 0.0 0.0 0.0 0.00019785804 0.0 0.0 0.0
1.0 0.00019785804 0.0 0.0 0.0 0.00019785804 0.0 0.0
0.0 1.0 0.00019785804 0.0 0.0 0.0 0.00019785804 0.0
0.0 0.0 1.0 0.00019785804 0.0 0.0 0.0 0.00019785804
0.0 0.0 0.0 1.0 0.00019785804 0.0 0.0 0.0
0.00019785804 0.0 0.0 0.0 1.0 0.00019785804 0.0 0.0
0.0 0.00019785804 0.0 0.0 0.0 1.0 0.00019785804 0.0
0.0 0.0 0.00019785804 0.0 0.0 0.0 1.0 0.00019785804
0.0 0.0 0.0 0.00019785804 0.0 0.0 0.0 1.0
0.0002465058 0.0 -0.2225316 0.0 0.0001933984 0.0 -0.0001872261 0.0
0.97492546 6.702425e-05 -2.3475357e-06 -0.21688765 -2.9174507e-05 0.00019304013 -0.049484078 0.0006066241
2.719848e-05 0.9749416 0.00018041451 -6.0695405e-05 -0.20041417 -2.7205235e-06 0.00016691236 -0.096520096
0.00010763147 0.00029061784 0.9749451 2.9366176e-05 -1.2262711e-05 -0.17403612 -0.00012717838 0.00018616805
-0.13872826 0.00095567125 7.7387755e-05 0.9749185 0.00015628462 -3.0958105e-05 -0.13871492 -4.7907146e-05
0.00015281448 -0.17385429 0.00028686452 0.00026180243 0.97495276 0.000182472 -2.269648e-05 -0.096520096
-1.8983388e-05 0.0001536674 -0.20041417 0.00013527874 0.00022927947 0.9749451 0.00020332189 3.311451e-06
-0.049484078 4.0516577e-05 0.00018944152 -0.21688765 -0.00018635698 5.998767e-05 0.9749416 0.0001930421
0.0 0.0 0.0 0.00021206356 -0.2224174 0.0 -3.9488805e-05 0.97495157
0.0001717998 0.0 -0.433689 0.0 0.00017835312 0.0 9.810707e-05 0.0
0.9010626 0.00016994677 -3.596264e-05 -0.42308465 1.1188108e-06 0.00017238926 -0.0965565 0.00010432058
8.561615e-05 0.90093076 0.0003374254 8.6219516e-05 -0.3907864 7.89596e-05 0.00022178075 -0.18815643
-0.00028577077 -0.00016999764 0.90104556 0.00016998671 -6.067742e-05 -0.33918607 -9.789012e-06 0.00012906399
-0.27050683 9.141765e-05 0.0002244647 0.9009877 0.00015440944 -1.5588797e-05 -0.2704153 -3.0149055e-05
0.00016019498 -0.33913818 0.00013306725 0.00011770346 0.9010332 0.00017860232 4.938868e-06 -0.18828334
2.415227e-06 0.00019620557 -0.39077675 4.3172935e-05 3.7358725e-05 0.90102327 0.00015863412 1.83027e-05
-0.0965565 -7.6810284e-05 0.00028075927 -0.42308465 0.00019552877 -0.00013870845 0.90093076 0.0001792526
0.0 0.0 0.0 0.00052477967 -0.433689 0.0 -0.00063014677 0.9010626
-8.2209284e-05 0.0 -0.6234752 0.0 0.00015542693 0.0 0.0004231209 0.0
0.7818431 0.00022422521 -0.00021369458 -0.60807616 2.2489943e-05 0.00010858099 -0.1387371 3.3486096e-05
0.00028972054 0.7816619 0.0001645825 -5.0838276e-05 -0.5615997 5.8412666e-06 0.00013101127 -0.2705459
9.8081924e-05 0.000120227385 0.7819276 -0.00014248438 -0.00031757329 -0.48739824 -0.00023734561 -9.986743e-05
-0.38881445 0.0005735317 0.00058636814 0.78183514 0.00024430561 9.472944e-05 -0.38880095 0.00011560203
