LUT/alpha_lambda_theta_phi.npy (npy, 147584 bytes, 1 tensors)

array f4 [8, 8, 8, 8, 3, 3]
0	0x3950a854	0.00019899133
1	0x00000000	0.0
2	0x00000000	0.0
3	0x00000000	0.0
4	0x39501e36	0.0001984768
5	0x00000000	0.0
6	0x00000000	0.0
7	0x00000000	0.0
8	0x3f800000	1.0
9	0x3950a854	0.00019899133
10	0x00000000	0.0
11	0x00000000	0.0
12	0x00000000	0.0
13	0x39501e36	0.0001984768
14	0x00000000	0.0
15	0x00000000	0.0
16	0x00000000	0.0
17	0x3f800000	1.0
18	0x3950a854	0.00019899133
19	0x00000000	0.0
20	0x00000000	0.0
21	0x00000000	0.0
22	0x39501e36	0.0001984768
23	0x00000000	0.0
24	0x00000000	0.0
25	0x00000000	0.0
26	0x3f800000	1.0
27	0x3950a854	0.00019899133
28	0x00000000	0.0
29	0x00000000	0.0
30	0x00000000	0.0
31	0x39501e36	0.0001984768
32	0x00000000	0.0
33	0x00000000	0.0
34	0x00000000	0.0
35	0x3f800000	1.0
36	0x3950a854	0.00019899133
37	0x00000000	0.0
38	0x00000000	0.0
39	0x00000000	0.0
40	0x39501e36	0.0001984768
41	0x00000000	0.0
42	0x00000000	0.0
43	0x00000000	0.0
44	0x3f800000	1.0
45	0x3950a854	0.00019899133
46	0x00000000	0.0
47	0x00000000	0.0
48	0x00000000	0.0
49	0x39501e36	0.0001984768
50	0x00000000	0.0
51	0x00000000	0.0
52	0x00000000	0.0
53	0x3f800000	1.0
54	0x3950a854	0.00019899133
55	0x00000000	0.0
56	0x00000000	0.0
57	0x00000000	0.0
58	0x39501e36	0.0001984768
59	0x00000000	0.0
60	0x00000000	0.0
61	0x00000000	0.0
62	0x3f800000	1.0
63	0x3950a854	0.00019899133
64	0x00000000	0.0
65	0x00000000	0.0
66	0x00000000	0.0
67	0x39501e36	0.0001984768
68	0x00000000	0.0
69	0x00000000	0.0
70	0x00000000	0.0
71	0x3f800000	1.0
72	0x39a66fc9	0.00031745274
73	0x00000000	0.0
74	0xbe63c163	-0.2224174
75	0x00000000	0.0
76	0x394ba1d9	0.00019419882
77	0x00000000	0.0
78	0xba0400fa	-0.0005035546
79	0x00000000	0.0
80	0x3f79966d	0.97495157
81	0x39659f75	0.00021898544
82	0x380cc45e	3.3561482e-05
83	0xbe5e34fe	-0.21699902
84	0x35bdfb49	1.4154731e-06
85	0x395234ed	0.00020046877
86	0xbd4aca75	-0.049509484
87	0xb899b60e	-7.329519e-05
88	0xb8f87fec	-0.00011849389
89	0x3f799410	0.9749155
90	0x3941cab5	0.00018481429
91	0xb8cbe631	-9.722671e-05
92	0xbe4d3f30	-0.20043635
93	0x335280ae	4.901147e-08
94	0x391ba744	0.00014844263
95	0xbdc5b333	-0.0965332
96	0x389e7bc2	7.557079e-05
97	0x39f545a1	0.0004678192
98	0x3f79959f	0.9749393
99	0x3929e4aa	0.0001620228
100	0x3804f2bd	3.169732e-05
101	0xbe321e43	-0.17394356
102	0xb7e5a023	-2.7373497e-05
103	0x396377d9	0.00021693054
104	0xbe0e1df6	-0.13878617
105	0x395e7aae	0.00021217272
106	0xb90e407a	-0.00013566195
107	0x3f7994cc	0.9749267
108	0x391c68de	0.00014916385
109	0xb766b447	-1.3751042e-05
110	0xbe0e1df6	-0.13878617
111	0xb8797247	-5.9472655e-05
112	0x3934f324	0.00017256715
113	0xbe321e43	-0.17394356
114	0x39b1d93a	0.00033921917
115	0x391fa54c	0.00015225
116	0x3f7994cc	0.9749267
117	0x3936b387	0.00017423752
118	0x373f772e	1.1412236e-05
119	0xbdc5aafe	-0.09651755
120	0xb824e72f	-3.9315953e-05
121	0x39646909	0.00021782903
122	0xbe4d5a81	-0.20054056
123	0x395cfe90	0.00021075667
124	0xb8ae576d	-8.313251e-05
125	0x3f799452	0.97491944
126	0x3953724f	0.00020165111
127	0x37a760d9	1.995305e-05
128	0xbd4aafd1	-0.049484078
129	0x3806a161	3.2098385e-05
130	0x399665dd	0.00028686124
131	0xbe5e17cc	-0.21688765
132	0xb909ffe0	-0.00013160659
133	0xb9c506d2	-0.0003757985
134	0x3f7995c6	0.9749416
135	0x39499454	0.0001922411
136	0x00000000	0.0
137	0x00000000	0.0
138	0x00000000	0.0
139	0x393bb0fa	0.00017899639
140	0xbe63df53	-0.2225316
141	0x00000000	0.0
142	0x38e21e98	0.00010782218
143	0x3f7994b7	0.97492546
144	0x399eb8c5	0.00030273772
145	0x00000000	0.0
146	0xbede0c7c	-0.433689
147	0x00000000	0.0
148	0x393c3abd	0.00017950959
149	0x00000000	0.0
150	0xb9335633	-0.00017102882
151	0x00000000	0.0
152	0x3f66ac0a	0.9010626
153	0x3914e165	0.00014198346
154	0xb8ae135b	-8.300572e-05
155	0xbed88442	-0.42288405
156	0xb698622e	-4.5413826e-06
157	0x3929e61c	0.00016202818
158	0xbdc5a76a	-0.09651072
159	0x392afa0b	0.00016305612
160	0x3943c487	0.00018669861
161	0x3f66a9e5	0.9010299
162	0x39aec098	0.0003333136
163	0x37aba745	2.046268e-05
164	0xbec81528	-0.3907864
165	0x389be3a9	7.433381e-05
166	0x39470138	0.00018978573
167	0xbe40ac14	-0.18815643
168	0xb9923036	-0.0002788321
169	0xb724a5aa	-9.813733e-06
170	0x3f66aaec	0.90104556
171	0x3983e5da	0.0002515752
172	0x38cf7ad3	9.893407e-05
173	0xbeada9cc	-0.33918607
174	0x386f0185	5.6983456e-05
175	0x3986ba25	0.0002569716
176	0xbe8a7fdf	-0.27050683
177	0xb903a0df	-0.00012553063
178	0xb957b2b9	-0.00020570577
179	0x3f66a721	0.9009877
180	0x394d97f6	0.00019606933
181	0xb717f8e2	-9.058249e-06
182	0xbe8a7fdf	-0.27050683
183	0x37c9034c	2.3962602e-05
184	0x3933dc58	0.00017152855
185	0xbeada9cc	-0.33918607
186	0xb551e7a5	-7.8195654e-07
187	0x38b8b5fd	8.807702e-05
188	0x3f66a721	0.9009877
189	0x39224c81	0.00015478024
190	0xb92726d2	-0.00015940823
191	0xbe40c37a	-0.18824568
192	0xb842eb9e	-4.647264e-05
193	0xb91a9d82	-0.0001474526
194	0xbec82d75	-0.3909718
195	0x391f9a55	0.00015220915
196	0x3a594c11	0.0008289228
197	0x3f66a46e	0.9009465
198	0x3961adb3	0.0002152238
199	0x371617d2	8.946243e-06
200	0xbdc5a76a	-0.09651072
201	0x392afa0b	0.00016305612
202	0x396e7a6b	0.00022743053
203	0xbed88442	-0.42288405
204	0xb9a756c4	-0.00031917368
205	0xb79a678f	-1.8406454e-05
206	0x3f66a9e5	0.9010299
207	0x393c7a38	0.00017974607
208	0x00000000	0.0
209	0x00000000	0.0
210	0x00000000	0.0
211	0x399500eb	0.0002842018
212	0xbede287d	-0.43390265
213	0x00000000	0.0
214	0xb9062f1f	-0.0001279679
215	0x3f66a54d	0.9009598
216	0x39beda08	0.0003640207
217	0x00000000	0.0
218	0xbf1fa056	-0.6235403
219	0x00000000	0.0
220	0x39236517	0.0001558255
221	0x00000000	0.0
222	0xb9111721	-0.00013836894
223	0x00000000	0.0
224	0x3f482378	0.7817912
225	0x3729977d	1.0108456e-05
226	0xb8b3f6c4	-8.581349e-05
227	0xbf1b9525	-0.6077445
228	0xb80bb005	-3.3304113e-05
229	0x390f0e1f	0.00013642803
230	0xbe0e1cbb	-0.13878147
231	0x39a0b38a	0.00030651345
232	0x39122741	0.00013938268
233	0x3f482b62	0.78191197
234	0x39b7f5ea	0.000350877
235	0x376c140a	1.4071362e-05
236	0xbf0fd421	-0.5618306
237	0x38c6a3c6	9.471881e-05
238	0x392b2ab7	0.00016323743
239	0xbe8a9393	-0.27065715
240	0xb924f8d4	-0.00015732954
241	0x380103cc	3.0759533e-05
242	0x3f481f01	0.7817231
243	0x392d9c44	0.00016556779
244	0xb914279d	-0.00014129137
245	0xbef992ca	-0.48744804
246	0x3730d7c7	1.0540657e-05
247	0x38329803	4.258008e-05
248	0xbec710eb	-0.38880095
249	0x38a2b36a	7.7581804e-05
250	0x399e4196	0.00030184974
251	0x3f4824c2	0.7818109
252	0xb7d7e6e0	-2.5737507e-05
253	0xb9479ad7	-0.00019035801
254	0xbec710eb	-0.38880095
255	0xb96c5fc8	-0.00022542395
